…
2022-11-17 19:47:31.577 INFO in 'deeppavlov.core.models.torch_model'['torch_model'] at line 161: Initializing `TorchTransformersSquad` from saved. 

2022-11-17 19:47:31.578 INFO in 'deeppavlov.core.models.torch_model'['torch_model'] at line 168: Loading weights from C:\Users\AdDarPay\.deeppavlov\models\squad_torch_bert\cased\bert-base-cased\model.pth.tar. 

2022-11-17 19:54:19.710 INFO in 'deeppavlov.core.models.torch_model'['torch_model'] at line 102: Model was successfully initialized! Model summary: 

 BertForQuestionAnswering( 

  (bert): BertModel( 

    (embeddings): BertEmbeddings( 

      (word_embeddings): Embedding(28996, 768, padding_idx=0) 

      (position_embeddings): Embedding(512, 768) 

      (token_type_embeddings): Embedding(2, 768) 

      (LayerNorm): LayerNorm((768,), eps=1e-12, elementwise_affine=True) 

      (dropout): Dropout(p=0.1, inplace=False) 

    ) 

    (encoder): BertEncoder( 

      (layer): ModuleList( 

        (0): BertLayer( 

          (attention): BertAttention( 

            (self): BertSelfAttention( 

              (query): Linear(in_features=768, out_features=768, bias=True) 

              (key): Linear(in_features=768, out_features=768, bias=True) 

              (value): Linear(in_features=768, out_features=768, bias=True) 

              (dropout): Dropout(p=0.1, inplace=False) 

            ) 

            (output): BertSelfOutput( 

              (dense): Linear(in_features=768, out_features=768, bias=True) 

              (LayerNorm): LayerNorm((768,), eps=1e-12, elementwise_affine=True) 

              (dropout): Dropout(p=0.1, inplace=False) 

            ) 

          ) 

          (intermediate): BertIntermediate( 

            (dense): Linear(in_features=768, out_features=3072, bias=True) 

            (intermediate_act_fn): GELUActivation() 

          ) 

          (output): BertOutput( 

            (dense): Linear(in_features=3072, out_features=768, bias=True) 

            (LayerNorm): LayerNorm((768,), eps=1e-12, elementwise_affine=True) 

            (dropout): Dropout(p=0.1, inplace=False) 

          ) 

        ) 

        (1): BertLayer( 

          (attention): BertAttention( 

            (self): BertSelfAttention( 

              (query): Linear(in_features=768, out_features=768, bias=True) 

              (key): Linear(in_features=768, out_features=768, bias=True) 

              (value): Linear(in_features=768, out_features=768, bias=True) 

              (dropout): Dropout(p=0.1, inplace=False) 

            ) 

            (output): BertSelfOutput( 

              (dense): Linear(in_features=768, out_features=768, bias=True) 

              (LayerNorm): LayerNorm((768,), eps=1e-12, elementwise_affine=True) 

              (dropout): Dropout(p=0.1, inplace=False) 

            ) 

          ) 

          (intermediate): BertIntermediate( 

            (dense): Linear(in_features=768, out_features=3072, bias=True) 

            (intermediate_act_fn): GELUActivation() 

          ) 

          (output): BertOutput( 

            (dense): Linear(in_features=3072, out_features=768, bias=True) 

            (LayerNorm): LayerNorm((768,), eps=1e-12, elementwise_affine=True) 

            (dropout): Dropout(p=0.1, inplace=False) 

          ) 

        ) 

        (2): BertLayer( 

          (attention): BertAttention( 

            (self): BertSelfAttention( 

              (query): Linear(in_features=768, out_features=768, bias=True) 

              (key): Linear(in_features=768, out_features=768, bias=True) 

              (value): Linear(in_features=768, out_features=768, bias=True) 

              (dropout): Dropout(p=0.1, inplace=False) 

            ) 

            (output): BertSelfOutput( 

              (dense): Linear(in_features=768, out_features=768, bias=True) 

              (LayerNorm): LayerNorm((768,), eps=1e-12, elementwise_affine=True) 

              (dropout): Dropout(p=0.1, inplace=False) 

            ) 

          ) 

          (intermediate): BertIntermediate( 

            (dense): Linear(in_features=768, out_features=3072, bias=True) 

            (intermediate_act_fn): GELUActivation() 

          ) 

          (output): BertOutput( 

            (dense): Linear(in_features=3072, out_features=768, bias=True) 

            (LayerNorm): LayerNorm((768,), eps=1e-12, elementwise_affine=True) 

            (dropout): Dropout(p=0.1, inplace=False) 

          ) 

        ) 

        (3): BertLayer( 

          (attention): BertAttention( 

            (self): BertSelfAttention( 

              (query): Linear(in_features=768, out_features=768, bias=True) 

              (key): Linear(in_features=768, out_features=768, bias=True) 

              (value): Linear(in_features=768, out_features=768, bias=True) 

              (dropout): Dropout(p=0.1, inplace=False) 

            ) 

            (output): BertSelfOutput( 

              (dense): Linear(in_features=768, out_features=768, bias=True) 

              (LayerNorm): LayerNorm((768,), eps=1e-12, elementwise_affine=True) 

              (dropout): Dropout(p=0.1, inplace=False) 

            ) 

          ) 

          (intermediate): BertIntermediate( 

            (dense): Linear(in_features=768, out_features=3072, bias=True) 

            (intermediate_act_fn): GELUActivation() 

          ) 

          (output): BertOutput( 

            (dense): Linear(in_features=3072, out_features=768, bias=True) 

            (LayerNorm): LayerNorm((768,), eps=1e-12, elementwise_affine=True) 

            (dropout): Dropout(p=0.1, inplace=False) 

          ) 

        ) 

        (4): BertLayer( 

          (attention): BertAttention( 

            (self): BertSelfAttention( 

              (query): Linear(in_features=768, out_features=768, bias=True) 

              (key): Linear(in_features=768, out_features=768, bias=True) 

              (value): Linear(in_features=768, out_features=768, bias=True) 

              (dropout): Dropout(p=0.1, inplace=False) 

            ) 

            (output): BertSelfOutput( 

              (dense): Linear(in_features=768, out_features=768, bias=True) 

              (LayerNorm): LayerNorm((768,), eps=1e-12, elementwise_affine=True) 

              (dropout): Dropout(p=0.1, inplace=False) 

            ) 

          ) 

          (intermediate): BertIntermediate( 

            (dense): Linear(in_features=768, out_features=3072, bias=True) 

            (intermediate_act_fn): GELUActivation() 

          ) 

          (output): BertOutput( 

            (dense): Linear(in_features=3072, out_features=768, bias=True) 

            (LayerNorm): LayerNorm((768,), eps=1e-12, elementwise_affine=True) 

            (dropout): Dropout(p=0.1, inplace=False) 

          ) 

        ) 

        (5): BertLayer( 

          (attention): BertAttention( 

            (self): BertSelfAttention( 

              (query): Linear(in_features=768, out_features=768, bias=True) 

              (key): Linear(in_features=768, out_features=768, bias=True) 

              (value): Linear(in_features=768, out_features=768, bias=True) 

              (dropout): Dropout(p=0.1, inplace=False) 

            ) 

            (output): BertSelfOutput( 

              (dense): Linear(in_features=768, out_features=768, bias=True) 

              (LayerNorm): LayerNorm((768,), eps=1e-12, elementwise_affine=True) 

              (dropout): Dropout(p=0.1, inplace=False) 

            ) 

          ) 

          (intermediate): BertIntermediate( 

            (dense): Linear(in_features=768, out_features=3072, bias=True) 

            (intermediate_act_fn): GELUActivation() 

          ) 

          (output): BertOutput( 

            (dense): Linear(in_features=3072, out_features=768, bias=True) 

            (LayerNorm): LayerNorm((768,), eps=1e-12, elementwise_affine=True) 

            (dropout): Dropout(p=0.1, inplace=False) 

          ) 

        ) 

        (6): BertLayer( 

          (attention): BertAttention( 

            (self): BertSelfAttention( 

              (query): Linear(in_features=768, out_features=768, bias=True) 

              (key): Linear(in_features=768, out_features=768, bias=True) 

              (value): Linear(in_features=768, out_features=768, bias=True) 

              (dropout): Dropout(p=0.1, inplace=False) 

            ) 

            (output): BertSelfOutput( 

              (dense): Linear(in_features=768, out_features=768, bias=True) 

              (LayerNorm): LayerNorm((768,), eps=1e-12, elementwise_affine=True) 

              (dropout): Dropout(p=0.1, inplace=False) 

            ) 

          ) 

          (intermediate): BertIntermediate( 

            (dense): Linear(in_features=768, out_features=3072, bias=True) 

            (intermediate_act_fn): GELUActivation() 

          ) 

          (output): BertOutput( 

            (dense): Linear(in_features=3072, out_features=768, bias=True) 

            (LayerNorm): LayerNorm((768,), eps=1e-12, elementwise_affine=True) 

            (dropout): Dropout(p=0.1, inplace=False) 

          ) 

        ) 

        (7): BertLayer( 

          (attention): BertAttention( 

            (self): BertSelfAttention( 

              (query): Linear(in_features=768, out_features=768, bias=True) 

              (key): Linear(in_features=768, out_features=768, bias=True) 

              (value): Linear(in_features=768, out_features=768, bias=True) 

              (dropout): Dropout(p=0.1, inplace=False) 

            ) 

            (output): BertSelfOutput( 

              (dense): Linear(in_features=768, out_features=768, bias=True) 

              (LayerNorm): LayerNorm((768,), eps=1e-12, elementwise_affine=True) 

              (dropout): Dropout(p=0.1, inplace=False) 

            ) 

          ) 

          (intermediate): BertIntermediate( 

            (dense): Linear(in_features=768, out_features=3072, bias=True) 

            (intermediate_act_fn): GELUActivation() 

          ) 

          (output): BertOutput( 

            (dense): Linear(in_features=3072, out_features=768, bias=True) 

            (LayerNorm): LayerNorm((768,), eps=1e-12, elementwise_affine=True) 

            (dropout): Dropout(p=0.1, inplace=False) 

          ) 

        ) 

        (8): BertLayer( 

          (attention): BertAttention( 

            (self): BertSelfAttention( 

              (query): Linear(in_features=768, out_features=768, bias=True) 

              (key): Linear(in_features=768, out_features=768, bias=True) 

              (value): Linear(in_features=768, out_features=768, bias=True) 

              (dropout): Dropout(p=0.1, inplace=False) 

            ) 

            (output): BertSelfOutput( 

              (dense): Linear(in_features=768, out_features=768, bias=True) 

              (LayerNorm): LayerNorm((768,), eps=1e-12, elementwise_affine=True) 

              (dropout): Dropout(p=0.1, inplace=False) 

            ) 

          ) 

          (intermediate): BertIntermediate( 

            (dense): Linear(in_features=768, out_features=3072, bias=True) 

            (intermediate_act_fn): GELUActivation() 

          ) 

          (output): BertOutput( 

            (dense): Linear(in_features=3072, out_features=768, bias=True) 

            (LayerNorm): LayerNorm((768,), eps=1e-12, elementwise_affine=True) 

            (dropout): Dropout(p=0.1, inplace=False) 

          ) 

        ) 

        (9): BertLayer( 

          (attention): BertAttention( 

            (self): BertSelfAttention( 

              (query): Linear(in_features=768, out_features=768, bias=True) 

              (key): Linear(in_features=768, out_features=768, bias=True) 

              (value): Linear(in_features=768, out_features=768, bias=True) 

              (dropout): Dropout(p=0.1, inplace=False) 

            ) 

            (output): BertSelfOutput( 

              (dense): Linear(in_features=768, out_features=768, bias=True) 

              (LayerNorm): LayerNorm((768,), eps=1e-12, elementwise_affine=True) 

              (dropout): Dropout(p=0.1, inplace=False) 

            ) 

          ) 

          (intermediate): BertIntermediate( 

            (dense): Linear(in_features=768, out_features=3072, bias=True) 

            (intermediate_act_fn): GELUActivation() 

          ) 

          (output): BertOutput( 

            (dense): Linear(in_features=3072, out_features=768, bias=True) 

            (LayerNorm): LayerNorm((768,), eps=1e-12, elementwise_affine=True) 

            (dropout): Dropout(p=0.1, inplace=False) 

          ) 

        ) 

        (10): BertLayer( 

          (attention): BertAttention( 

            (self): BertSelfAttention( 

              (query): Linear(in_features=768, out_features=768, bias=True) 

              (key): Linear(in_features=768, out_features=768, bias=True) 

              (value): Linear(in_features=768, out_features=768, bias=True) 

              (dropout): Dropout(p=0.1, inplace=False) 

            ) 

            (output): BertSelfOutput( 

              (dense): Linear(in_features=768, out_features=768, bias=True) 

              (LayerNorm): LayerNorm((768,), eps=1e-12, elementwise_affine=True) 

              (dropout): Dropout(p=0.1, inplace=False) 

            ) 

          ) 

          (intermediate): BertIntermediate( 

            (dense): Linear(in_features=768, out_features=3072, bias=True) 

            (intermediate_act_fn): GELUActivation() 

          ) 

          (output): BertOutput( 

            (dense): Linear(in_features=3072, out_features=768, bias=True) 

            (LayerNorm): LayerNorm((768,), eps=1e-12, elementwise_affine=True) 

            (dropout): Dropout(p=0.1, inplace=False) 

          ) 

        ) 

        (11): BertLayer( 

          (attention): BertAttention( 

            (self): BertSelfAttention( 

              (query): Linear(in_features=768, out_features=768, bias=True) 

              (key): Linear(in_features=768, out_features=768, bias=True) 

              (value): Linear(in_features=768, out_features=768, bias=True) 

              (dropout): Dropout(p=0.1, inplace=False) 

            ) 

            (output): BertSelfOutput( 

              (dense): Linear(in_features=768, out_features=768, bias=True) 

              (LayerNorm): LayerNorm((768,), eps=1e-12, elementwise_affine=True) 

              (dropout): Dropout(p=0.1, inplace=False) 

            ) 

          ) 

          (intermediate): BertIntermediate( 

            (dense): Linear(in_features=768, out_features=3072, bias=True) 

            (intermediate_act_fn): GELUActivation() 

          ) 

          (output): BertOutput( 

            (dense): Linear(in_features=3072, out_features=768, bias=True) 

            (LayerNorm): LayerNorm((768,), eps=1e-12, elementwise_affine=True) 

            (dropout): Dropout(p=0.1, inplace=False) 

          ) 

        ) 

      ) 

    ) 

  ) 

  (qa_outputs): Linear(in_features=768, out_features=2, bias=True) 

) 

context_raw:: 

question_raw:: 

>> ('', -1, 0.0) 

context_raw:: 

question_raw:: 

>> ('', -1, 0.0) 

context_raw:: 

question_raw:: 

>> ('', -1, 0.0) 

context_raw:: 

question_raw:: 

>> ('', -1, 0.0) 

context_raw:: 

question_raw:: 

>> ('', -1, 0.0) 

context_raw:: 

question_raw:: 

>> ('', -1, 0.0) 

…
